ChirpChirp-main/data/bam_autoencoder_weights/mf_layer_2_weights.npz (npz, 2538 bytes, 2 tensors)

W f8 [8, 16]
0	0x3fc4a417c4755365	0.1612577161091863
1	0x3f72b2dd6ec8c195	0.004565110179598615
2	0x3fb9ddb2ea1e1abd	0.10103910651933297
3	0x3fd0a117e263816f	0.25983235462447046
4	0xbfd8a0d8ac27f7d7	-0.38481728374597196
5	0xbfb6d0de981ad12e	-0.08912459577078799
6	0x3fbceeb3c0d2dfcd	0.11301730592356236
7	0x3fd1f2b0b138ba7d	0.28043763453289455
8	0xbfb8bbe6238313e1	-0.0966171108912728
9	0x3fd50406184d896a	0.32837059377029354
10	0xbfd576f7e64cd20b	-0.3353862523102015
11	0xbf82be7844590580	-0.009152354799087048
12	0xbfc80243cab98c1e	-0.18756911657973857
13	0xbfabc7e82d76af52	-0.054259543943173796
14	0xbfc184d33914614c	-0.13686600005235972
15	0x3fcb557336acd6ec	0.21354522866902614
16	0xbfd31546c09104b3	-0.29817360692329514
17	0x3fb475b6b61f0f90	0.07992116876908839
18	0x3fac3bfb297f58a5	0.055145119491201634
19	0x3fd49114a6a9e338	0.3213550212454268
20	0xbfa1d022b112e251	-0.034791072955560616
21	0xbfc6f8cf8006b959	-0.1794680953148127
22	0x3fd25ead6ea2621e	0.2870286541379147
23	0x3f91ff2123633e2e	0.017574804100887124
24	0xbfd1bf809862febd	-0.2773133743430483
25	0xbfc1272e86d66a63	-0.1340082319628265
26	0x3fd682759c347fa4	0.3517126107635653
27	0x3f97be001493472c	0.023185731178109112
28	0x3fc82503a3a1aa82	0.1886295842153523
29	0x3fc0f737017c3dc6	0.1325443989994552
30	0x3fcf53543c2cfa93	0.24473050058619047
31	0x3fbfb910b891200a	0.1239176226237079
32	0x3fe0d07258ef46c9	0.525445150089774
33	0xbfb85c6371134b54	-0.09515973578099352
34	0xbfaabb1b4c7079c4	-0.05220876033876068
35	0xbfd731c1759645e1	-0.3624118469534477
36	0x3faf796690fbec03	0.061473088453531964
37	0x3fb1cf28f9971c5d	0.06956726163399325
38	0x3fc477995bf5f1b9	0.15989987364072336
39	0x3fcdcc67a76e302f	0.2328004424601899
40	0xbfd2e87837f42f30	-0.2954388185905712
41	0xbfcd63b914834af9	-0.22960580350498797
42	0xbf7ba729c653df89	-0.0067512161087889344
43	0x3f9f74c323de4a2c	0.030718850197056266
44	0xbf78e86687212c9e	-0.006081009387410989
45	0x3fa0134f777a3be9	0.031397326788571274
46	0x3fd56027b327878d	0.3339938401751333
47	0x3fbe0d9d86f5d3c3	0.11739525360992702
48	0x3f73ffeb7a18c347	0.0048827360456449925
49	0x3fbe57717ef6e67d	0.11852177953451278
50	0x3fd3b7e60ad4b1c1	0.30809927995394665
51	0x3f9b1057ca46b5ae	0.02642953083129889
52	0x3fd613ee67a3b4f4	0.3449665081123634
53	0xbfb2301f28248073	-0.07104677896541194
54	0xbfcc7f3f5ab8303b	-0.2226332848516693
55	0x3fa4bf59807dd559	0.04052238172054485
56	0x3fa20f9ff86431d0	0.035275458403791426
57	0x3fc513097fb21f6e	0.16464346633096788
58	0xbfcf5a5e45c57e85	-0.24494532019433649
59	0x3fe095df1a0b3e43	0.5182948597593583
60	0x3fd2b32cd7200c64	0.2921859837371754
61	0x3fc92f56eed66d20	0.19675718938820186
62	0x3fc3c5d57550c6ca	0.15447490909860156
63	0xbfbb6ee5833bf076	-0.10716089681585736
64	0xbfc7b2204d03d631	-0.18512347946641364
65	0xbfd69c7e4756c1f6	-0.3533015915554921
66	0xbfacea486dbb33f9	-0.05647493686192457
67	0xbfc8f6054784f822	-0.19500795356901884
68	0x3fad5c915d71404d	0.05734686151174682
69	0xbfd0488f7dd75d71	-0.2544287423056267
70	0xbfd80e4ca567ad57	-0.37587276604491165
71	0x3fcb4dc47de588de	0.21331077716155894
72	0xbfbb95615c20414f	-0.10774811267061078
73	0x3fbe1fd7ee80e7cc	0.11767339299049623
74	0xbf96d474def15fed	-0.022294832331993964
75	0xbfccd09c4fa270c2	-0.2251162899818891
76	0xbfac6cb8cd5fc7fc	-0.05551698214539155
77	0x3fde9f407bde4ac8	0.4784699639941832
78	0x3f94969553857dbe	0.02010567972444987
79	0x3fb524bb747d0b83	0.0825917395969054
80	0xbfa5caeb36135f91	-0.04256377253631095
81	0xbfcd25acc3c7c1a0	-0.22771224555573344
82	0xbfb8aff863efe7c7	-0.09643509330626819
83	0x3fd7bf859ecbdc32	0.37106457240537616
84	0x3f950844278181da	0.020539345656631493
85	0x3fbabf9784411c40	0.10448595980516107
86	0x3fb2b5099197a6a7	0.07307491116048458
87	0x3fd81491db1a6338	0.376255477874611
88	0x3fb0256115b7b66f	0.0630703619023849
89	0xbfc95a3c1585b549	-0.19806624461072378
90	0xbfbb0b9d9e9b384f	-0.10564599153733066
91	0x3fc6cfb0faa3e2d2	0.1782132362202647
92	0xbfd1994d9b29a2c2	-0.27498188164330994
93	0x3fb26ff49b5d6f8c	0.07202080529299176
94	0x3fb9a983213962b4	0.10024280129563118
95	0xbfdf9a05c59a2abd	-0.4937757901867988
96	0xbfc25f3ba6804326	-0.14353128080303995
97	0x3fd8a420cbd7394b	0.3850175848609935
98	0xbfd6485c317b0bbd	-0.3481665118417217
99	0x3f87a5b2158a19df	0.011546508104641027
100	0x3fb191993cdb0911	0.0686279080937633
101	0x3fc5ad8964683ec7	0.16935841944404315
102	0x3fb73d0b26018a63	0.09077520063287063
103	0x3fce291b5dedcee2	0.23562948309301307
104	0x3fc23b614f997a3a	0.14243713747687697
105	0x3fb045c6c7816710	0.06356470461596708
106	0x3fa373f635806fb0	0.03799409297081924
107	0x3fa5ee7910f2e1e5	0.04283502895254169
108	0xbfb442acc965a9d7	-0.0791423789684481
109	0x3fd3c6d41cbe3257	0.30901053244523297
110	0x3fbf12e21bbd838b	0.12138188531163345
111	0x3fd74f364b35e6e5	0.36420972199230867
112	0x3fce5a764d18e67e	0.2371356846286296
113	0xbfc0165cd2492029	-0.12568245189527374
114	0xbfb7eac48d709666	-0.09342602208251946
115	0xbf932bd31018aa7d	-0.018721864564364744
116	0x3fb3aa518a201b94	0.07681760427668244
117	0xbfd32b78fe2a48df	-0.2995283586580068
118	0x3fd4275556ac2296	0.3149007173929389
119	0xbfd25f3f247db0d8	-0.28706339419910654
120	0x3fc9a35881230ae5	0.20029741578590357
121	0x3fb122a7bb95207f	0.06693504647876301
122	0x3fc51b1adf125652	0.16488967792672554
123	0x3fd449834e9f5bca	0.31698687246301616
124	0xbfbbbfdb58b408e6	-0.10839625278098061
125	0x3fd732d6035a1aaf	0.36247778251019275
126	0xbfaf69be57a605c6	-0.06135363407066623
127	0x3fa8b9524add5679	0.04828889049410363

V f8 [16, 8]
0	0x3fc558c81b1831ff	0.1667719013497759
1	0xbfd43fcc13235b63	-0.3163938700576436
2	0x3fdda0f4863d318a	0.4629489241531465
3	0xbfa492adbb369b10	-0.040181569197832556
4	0xbfc7f3118e4f9723	-0.18710536431097421
5	0xbfa897b0e9ffcd92	-0.04803231102405471
6	0xbfc4c1ab8c58105b	-0.1621603427194057
7	0x3fd125755edaf1ab	0.2679112840958406
8	0x3f8bf1b1aff2efae	0.013644588644062452
9	0x3fa4c2b7b57e9bd0	0.040548077492807644
10	0xbfa7a2804b2d893d	-0.04616166036318468
11	0x3fc23728fd6d3e63	0.14230835317947585
12	0xbfd560c653540cda	-0.33403165948420865
13	0xbfc9df19c359cc34	-0.2021209911214058
14	0x3fe014c22ff81605	0.5025340020080767
15	0xbfca71d5d55d2085	-0.2065989772620506
16	0x3fcc06d798feb402	0.21895880670982143
17	0x3fc8311de8337676	0.1889989265245508
18	0xbf80498c21cb0224	-0.007952780514984666
19	0x3fd6dac87212a241	0.3571034540168832
20	0xbfaa32cb62c06c5b	-0.05116878109421271
21	0xbfcba9fc009a0ab4	-0.21612501172429222
22	0xbfdf35ae15c6ba32	-0.48765136839475354
23	0xbfc6a254d91573f7	-0.17682896232409437
24	0x3fd0154993bbd802	0.2512992804253146
25	0x3fd6396655c0c3f8	0.347253402465014
26	0xbfd45aa17ac0f843	-0.3180316637771094
27	0xbf91603f4898d391	-0.016968716436355506
28	0xbfc354d9f16ad7d0	-0.15102695739704908
29	0x3fd5dbb5bb83fdbd	0.3415350276190699
30	0xbf7db6ef70f40948	-0.0072545388386536305
31	0xbf8a585fc9ef352c	-0.012863872861908897
32	0xbfd964793d20594f	-0.3967574212014328
33	0xbfb07f8b33105c01	-0.06444616314580288
34	0xbf891c052b3c0ff7	-0.012260475522914744
35	0x3fce08f496fc5caf	0.23464829799988737
36	0xbf8d128c801c6a65	-0.014195535335194973
37	0x3fb07672fd31f7b5	0.06430739099047751
38	0x3fb7173958aa0a58	0.09019812025693719
39	0xbf9332fbbb787bb2	-0.0187491734669682
40	0xbfc57825a00740fd	-0.16772909463771404
41	0xbfcf3043f99a8992	-0.2436604470031623
42	0x3fb17d70f6cbe69f	0.06832033181481244
43	0xbfa0ac5b6d35261c	-0.032564980584151665
44	0xbfd47201c584be56	-0.31945843018454434
45	0x3fba094928c838ac	0.10170418973595713
46	0x3fd07044b94680f0	0.25685232251454604
47	0xbfd81782143916fb	-0.37643482184317606
48	0x3fcbb7cf14a2711c	0.21654690272851773
49	0x3fd5e728764e08bc	0.34223376801686434
50	0x3fbba796447e062d	0.10802592441725585
51	0xbfca7bd3e8f86cc1	-0.20690392375477099
52	0xbfd70275df0197ee	-0.35952517297698605
53	0x3fab06fff98f0c88	0.05278778001186263
54	0x3f929bde618b0607	0.018172716811710312
55	0x3fd72df94df0b461	0.3621810208449628
56	0x3fd0860f3388d7ce	0.2581823352114697
57	0x3fa6fe291e26ccf8	0.04490784161625955
58	0x3fca5ccfce124c17	0.20595738946994466
59	0x3fc1fedae257313d	0.14059005786692494
60	0x3fc27ef993676373	0.14449996659711992
61	0x3fd4e2f417d7853a	0.3263521416502787
62	0x3fcbca2e74501511	0.2171075885709475
63	0xbfd72b7164bb4401	-0.36202654683171437
64	0xbfc8edfc87a3e6ca	-0.1947627699190007
65	0xbfde62d8087c4e3e	-0.4747829516283878
66	0xbfd35e7a41014561	-0.30264145229474165
67	0xbf9200d592eb44cc	-0.0175813074991467
68	0xbfc3d900141e6012	-0.15505982382160305
69	0x3fb4239e62658f46	0.07866849806083306
70	0x3fd34c4cb155d182	0.3015319568433129
71	0x3fd0008fbccae62e	0.2500342696835983
72	0x3fd9a562beddac73	0.4007193435597351
73	0xbfbcd352411f17a3	-0.11259950723532923
74	0xbfccc013cdab0bf0	-0.22461173574819737
75	0x3fc7deaade12cdb2	0.18648277133398278
76	0x3fb27866c379f4c6	0.07214967987416107
77	0xbfcd44261c860566	-0.2286422385478019
78	0x3f892d9b56d34c8c	0.012294019305420421
79	0x3fa71ea43601badd	0.045155650704023144
80	0xbfd79201733c1766	-0.3682864785517864
81	0x3fd19ad87be88814	0.2750760278742075
82	0xbf96470e18cb35b4	-0.021755428565304505
83	0xbfcaba1ebbd9cad6	-0.2088049332847592
84	0xbfa1e8da557159d9	-0.034979651384378925
85	0xbfb910633755db5c	-0.09790630436860454
86	0xbfbab880d3292854	-0.10437779574672962
87	0x3fba527f2cd060db	0.1028213009270788
88	0x3f9d0ea3eb38836b	0.02837616084264331
89	0xbf99eaa7f404c8eb	-0.02530920435783283
90	0x3fa508bcc573057d	0.04108228597898298
91	0x3fe16008602ff3ac	0.5429727438600955
92	0xbfcdbb3f2c364c57	-0.2322768178824812
93	0x3fc2744ea63284e7	0.14417441477875245
94	0x3fac1a3107866755	0.05488732544763645
95	0x3fd3761f9c5684ec	0.3040846850145289
96	0xbfbb3912c27c4fea	-0.10633961914237458
97	0x3fd02dcf6d168b39	0.25279603627329866
98	0xbf9686a7e9d00594	-0.021998046537196794
99	0x3fd425ad7b8b307f	0.3147996622544795
100	0xbfb618eb43ffd10d	-0.08631773386133919
101	0xbfd1c695ea3e9aa9	-0.27774570346302113
102	0xbfc02402ed7d86c3	-0.1260989818211354
103	0xbfc4d12c9c01417c	-0.16263349168231034
104	0x3f9140601681bf7e	0.016847134946544433
105	0x3fbec640e7fb8a5e	0.12021260894429406
106	0x3f8616fa4451a74b	0.010786013803414504
107	0x3fb6afaca28cf982	0.08861807793161883
108	0x3fdc42201071b29c	0.44153596502182224
109	0x3fb11a7e2541bf06	0.06681049737539632
110	0x3fd3546ed20fc917	0.3020283748038692
111	0x3fd76cdc2ec8e0e7	0.3660192925340326
112	0xbfc150cb82ae07a4	-0.1352781665883046
113	0x3fd0d4a50f1b0699	0.26297880625870956
114	0x3fdb6a9a4ef692a5	0.4283815165638692
115	0x3fc4029547002fc9	0.156328830402684
116	0x3fa59f926577303b	0.04223306168168547
117	0x3fbe65fa8476f7ff	0.11874356969835274
118	0x3fc96a0c7e849bf3	0.1985488527072615
119	0xbfc56b3a269fb7c9	-0.16733481298382305
120	0x3fcef709d38f8ab2	0.24191401319611355
121	0x3fbe6998c7c36adb	0.11879877926859754
122	0x3fb53c25b629e974	0.08294902512890251
123	0xbf9ad8ee83546dad	-0.026218153730139516
124	0x3fabbf9c8d1ad231	0.054196254944518414
125	0xbfddd946153415b7	-0.46638633795404466
126	0x3fd5b6a15f380e1a	0.33927187250830715
127	0x3f7d6a8657cfd6bc	0.00718166806926995
