ChirpChirp-main/data/bam_autoencoder_weights/mf_layer_1_weights.npz (npz, 6634 bytes, 2 tensors)

W f8 [16, 24]
0	0xbfb31ff549e3ca65	-0.0747063928027188
1	0xbfd651bd13fb695c	-0.34873892737745904
2	0x3fab8495527f1e75	0.05374590522802417
3	0x3f9193b5e00672a8	0.017165033148205083
4	0xbfb3d9f960dafbfb	-0.07754477133401842
5	0x3fc0b1dc204daaa4	0.13042785241426202
6	0x3fc451b2e0175aec	0.1587432474322762
7	0xbfa2eb8e00b1df9f	-0.036953389725510315
8	0xbfbba0e3885a4230	-0.10792371825142122
9	0x3fa47925a51215a8	0.03998677864096162
10	0x3fc7ba711f63b812	0.185377254797857
11	0xbfaa9ba7e6a90729	-0.05196880999257154
12	0x3fb237d780fc77fc	0.07116457842900553
13	0xbfc1c4be859f5cd3	-0.13881665730034473
14	0xbfb0e5cb7bdd4624	-0.06600639127761859
15	0x3fb5122a78868e4b	0.08230843966026062
16	0x3fab2082357ce863	0.05298239615372393
17	0x3fc06bf2ecfd47b4	0.1282943398642239
18	0xbfb71a9243f21936	-0.09024919661360262
19	0xbfa7b81979e8e217	-0.046326442843966635
20	0xbf58a386f814a782	-0.001503831678130813
21	0x3fd0cdcbb9ba8074	0.2625607789759734
22	0x3f98bf2ed3fd99c6	0.024166804970627863
23	0xbfd3856f399be3c2	-0.3050191938960404
24	0xbfb953abc9a4bb30	-0.09893296883522562
25	0x3fd09b0caf447fe2	0.25946347347234966
26	0x3fbf3ece2f439b62	0.12205208448322716
27	0x3fa77edac503156c	0.04588969855243871
28	0x3fd2e721a72cc258	0.29535714460056317
29	0x3fc79f6fc5586e8c	0.1845531190491453
30	0x3fc20ae49dc94ece	0.1409574289742665
31	0x3fb75cf8bcc87c21	0.09126238450015524
32	0x3fc6c64452324592	0.1779256249761088
33	0x3fb2d71cd17fb7c3	0.07359485735625441
34	0x3f9d30cf1d5fd258	0.028506504218926615
35	0xbf6463fe29c02548	-0.0024890865443053835
36	0xbfbaf9c6449c8135	-0.105373756171052
37	0xbfc06c6b44a03806	-0.12830868578788585
38	0x3f8207d641dfe1ed	0.008804010281878905
39	0x3fc09c855f6160b5	0.12977664143796167
40	0x3f890150e92d937b	0.012209541431454465
41	0x3fb84596e5f97bca	0.09481185068715017
42	0x3fb3ad75cfd96a21	0.07686554264493185
43	0xbf819d64e70d228a	-0.008600986767889358
44	0x3fca54a1e08fca70	0.20570777382779992
45	0xbfbf239382201f64	-0.12163659979716851
46	0xbfb04fb60331df19	-0.0637162931251364
47	0x3fb7b9da88982606	0.09267965159246935
48	0x3faf69812695a9d4	0.06135181041721052
49	0xbfc223fd43c47e6b	-0.14172330674135777
50	0x3fa3989738e6e86a	0.038273549743693305
51	0xbfc79dd3c6d0c546	-0.1845040055064066
52	0xbfb9076c49e59671	-0.09776951603051899
53	0xbfb35eae9dcd7b47	-0.07566348412136135
54	0xbfc46c14c5dc4aad	-0.1595483747592729
55	0x3f8d0ddf816faf1a	0.014186617028790805
56	0x3fa154bcc835eaff	0.0338496202848173
57	0xbfbcdd72cfe5f645	-0.11275403571740934
58	0xbfc8650213ef6e48	-0.19058252309229062
59	0x3fb1d296ff9e3ec2	0.06961959591557856
60	0xbfc732faa4122276	-0.18124325763007548
61	0x3fb7c33d4b3319ab	0.0928228672592925
62	0x3fb3c3ba3fc20c31	0.07720531517593156
63	0x3f7f93ab5d3e3e99	0.007709187881019063
64	0xbf7fd0a5bc2ddb94	-0.007767341044078519
65	0xbfb0d3e9009c7410	-0.06573349251671368
66	0xbfb8b47ecb7c7e7c	-0.09650413959433907
67	0x3fc094396e822bec	0.1295234479515267
68	0x3fcc5ddd0f9c29b2	0.22161448728759364
69	0xbfb064dee63a8d42	-0.06403916474169072
70	0x3fc43f7cebe7ca41	0.15818749922580547
71	0xbfc25d2bd3f23409	-0.14346835946017247
72	0xbfb21c2125288fc8	-0.070741721698652
73	0x3fbe6bed03ce409d	0.11883431761657666
74	0xbfa0da12aa0736e4	-0.032913764243500926
75	0xbfd012f071e368c0	-0.2511559593382451
76	0x3f9ce68a16595016	0.02822318803221443
77	0xbfb058feeeb66cdf	-0.06385796859688096
78	0xbfc8a3cb771b770b	-0.19249862018380556
79	0x3fbf440f83b4067a	0.122132272390468
80	0xbfcd6c8ef77375de	-0.22987544138497545
81	0x3fb012716e92999a	0.06278141927268735
82	0x3fb6514ede452171	0.08717816282763181
83	0x3f92a10cc2443cbd	0.018192481381501525
84	0xbfc381e7087ad6bf	-0.1524018088727441
85	0xbfb3d4982a932ecd	-0.07746268310000488
86	0x3fd4a7fe478e8d99	0.3227534960553498
87	0xbfd13abf1930897a	-0.2692106004707494
88	0x3f887262c571b89b	0.011936923647422317
89	0xbfb68fe58bddae61	-0.08813318886466838
90	0xbf8ab2093917ed35	-0.013034889273504472
91	0xbfb6e38176bc7011	-0.08940896176176262
92	0x3fde00c59c6e24fc	0.4687971141471079
93	0x3faecdbda2acedeb	0.06016342745575883
94	0x3f76f4e834df0e3a	0.005604655319931201
95	0x3fc17b4d1338b586	0.13657535017538808
96	0xbfd7fe3bccda9524	-0.374892187168671
97	0xbfbc5907930bd53c	-0.11073348369594255
98	0xbfca86e655737e3c	-0.20724181339663683
99	0xbfa2d368c894c7b4	-0.03676917503834379
100	0x3f87330c096bc239	0.011327833211425819
101	0x3fa11cd2704c05b3	0.03342301960766338
102	0x3f974b35545aed90	0.022747834466583294
103	0xbfb3c0295f1ffdd1	-0.07715090343844301
104	0xbfcc44ac8d0bb460	-0.22084576498983477
105	0x3fb25cd490e4ddc0	0.07172897851420768
106	0x3f5baf5bf639e229	0.0016897581162124231
107	0x3fadff50e4643fa2	0.05858853137954091
108	0x3fbe0b3fe2d09411	0.11735915458173475
109	0xbfc01ae85c48acc5	-0.12582115655945905
110	0xbfc8c449d4b9b5cd	-0.19349024664863493
111	0x3fd4643fb2015572	0.3186187017757539
112	0x3fd22195d73faaa9	0.28329988499050757
113	0xbfbc0917d57673ce	-0.10951374970905123
114	0x3fc3abe548d2fb5e	0.15368333869806866
115	0x3fa8527566ee8e66	0.04750410920612751
116	0x3fc9c0f1161b2fbf	0.20120061473278203
117	0xbfd0ff8dc8c82024	-0.26559776885597075
118	0xbfabf0590508ab47	-0.05456808268021134
119	0xbfbbdf171b29ca77	-0.1088728371922033
120	0x3fbc1c1f5bad4a66	0.10980411518293351
121	0x3f545c40b74e9b4f	0.0012426979057893089
122	0xbfaf9114b9ce3272	-0.061653754884081105
123	0x3fa41e78717ff087	0.039294971327735566
124	0xbfd4c2f4a66c65fa	-0.32439914943969905
125	0x3fb97bcb4d84d901	0.09954519884636072
126	0xbf67cdb971643a03	-0.0029057142193160703
127	0x3fca2ca7d67f8d6f	0.20448778127238706
128	0xbfa65bee033e3660	-0.04367011823260891
129	0xbf8f23374c118d9a	-0.015203887947967943
130	0xbfcd22891aa81449	-0.22761644174184628
131	0x3fd59fb41c31bc24	0.33787253144595497
132	0xbfd28d505353a87a	-0.28987510812169826
133	0x3fac830523954b88	0.05568710383763348
134	0xbfb8e92a07366333	-0.09730780292592271
135	0xbfa51fd1f6ee1bdf	-0.041258393662296326
136	0xbfa21dd6ef9dc94e	-0.035383908033412056
137	0x3f5eb6ddbbfdcfe7	0.0018746533750943985
138	0x3fc6e688d597c40c	0.1789103548940435
139	0x3f9e903515b027a7	0.02984698243020714
140	0x3fc6f0c607f34c91	0.17922282589151853
141	0xbf991cf681a4515c	-0.02452454725524099
142	0xbfafa176404fec87	-0.06177873168049879
143	0xbfc068fba989e6fe	-0.12820382860427765
144	0xbfc7202e4206ea61	-0.1806695768735436
145	0x3f80d807030170fd	0.008224539546227034
146	0xbfb24591f5fdc077	-0.07137405639309856
147	0x3fc3d17859a7ac3e	0.15483002069172075
148	0xbfc546177b152dc8	-0.16620152959727208
149	0x3fc43da6dbd9f64c	0.1581314633839831
150	0x3f951fec1c8735d4	0.020629586449833884
151	0xbfd786f0ba7608e6	-0.3676111050518912
152	0xbfa69998ade38ad8	-0.04414059755960914
153	0x3fd5ad38cc8032cd	0.3386976239278681
154	0x3fc852b6ef1e65c5	0.1900242488452887
155	0x3fc9e9518941c757	0.20243281557082568
156	0xbfce00b45d8b80be	-0.23439650123237316
157	0x3fc04fe49ff0b28f	0.12743814286786345
158	0x3fd1c3c12b72232b	0.27757291071661666
159	0x3fc2366029f59be9	0.14228441284941987
160	0x3fb22e1668b7aadd	0.07101573998049156
161	0x3fb84ab8e1c6a1bf	0.09489017021281308
162	0x3f8fc37bc86dcce1	0.0155095739880608
163	0x3fbadd33e3d7cfb9	0.1049377852685315
164	0xbfc0fa2d7f8dbc40	-0.13263481834607838
165	0xbf92c224b63b7934	-0.01831872331865121
166	0x3f951040f2d2e78d	0.020569815464774478
167	0x3fca8a6fa6fcab54	0.20734973577176652
168	0xbfbda1a3c882e176	-0.11574767728132493
169	0x3fc649e3917579c9	0.17412991144642678
170	0x3fbd454cda0c6377	0.11433868716666305
171	0xbfadc62ae3ea3bea	-0.05815252334752315
172	0xbfb619448718965e	-0.0863230542969062
173	0xbfb6574d7a4eac81	-0.08726963268297717
174	0xbf9bfcb5d16f26a4	-0.027331200511787515
175	0x3fbbbc94dd16234a	0.10834627530688326
176	0xbfda880ba4b53676	-0.41455355725052045
177	0xbfc8219063723381	-0.1885242925240185
178	0xbfc9d156ece56890	-0.2017010361403817
179	0x3fb3e2685380b484	0.0776734546531817
180	0xbfae96406dfac60b	-0.059740079331629024
181	0xbfcd1a9d40a49299	-0.22737470299138776
182	0xbfb0a942d935f1c8	-0.06508271983142955
183	0x3f9f1fa4970290a0	0.030394145695610164
184	0xbfcf8ea2988630af	-0.2465403790232634
185	0x3fd059e233bd955d	0.25548605969227883
186	0x3fc08e57fe5a83dc	0.12934398574455386
187	0x3fc400841a238c64	0.15626574779807634
188	0xbfcfbe42a6977c53	-0.24799378523218482
189	0x3f970ec861e01157	0.022517329191047732
190	0x3f5e17433e1ebe99	0.0018366009394234272
191	0x3fc00495f9670257	0.12513994863367614
192	0x3fb8d8e6b1e2cfcf	0.09705964892310635
193	0xbf72f1ac3b080ba5	-0.004625008369205573
194	0xbfcb0467abc8216a	-0.21107192886143916
195	0x3fc2f964b7c108e5	0.1482358834492238
196	0x3fb0aeebf0335fc9	0.06516909231447622
197	0x3fc164d38842203e	0.13588947442281268
198	0x3fb0eb7d46c3aa78	0.06609328248638657
199	0xbfa41ba2484c4a02	-0.03927333004516599
200	0x3fbae0a341c0993d	0.10499019961625762
201	0xbfc6c0e2566d4509	-0.17776135654506955
202	0xbfabfe5ab040d7a8	-0.05467494393853595
203	0x3fca6f4be90c1c4c	0.20652150038970019
204	0x3fb0a0e8640ff9a6	0.0649552578251816
205	0x3fcf71592cdf3669	0.2456466168500129
206	0x3f93831a03319e89	0.019054800457893015
207	0xbfc4943ea19c819d	-0.1607740677946027
208	0x3fcea134c9da8415	0.23929462295657858
209	0xbf70b8e25b65a3d1	-0.004082569319828048
210	0x3fa5960cb458f9f5	0.04216041280277586
211	0xbfb08b64c77f8a63	-0.0646269785934606
212	0x3fbb82ba26bf5db1	0.10746348806366403
213	0x3fa7cd04a8983ed7	0.04648603971520309
214	0xbfc9b106028b4076	-0.20071482776848243
215	0xbfb8820d7bc108a7	-0.09573444625223947
216	0x3fb0c0fb26f5a096	0.0654446573367998
217	0x3fb8cc6958c592aa	0.09686907212523957
218	0xbfa6876262a5f3ca	-0.04400165037348065
219	0x3f9739d04b37170b	0.022681479063769532
220	0x3fb1fe0291eba8d6	0.07028213560593896
221	0xbfb05ec2ee5e2bbb	-0.06394594497230248
222	0x3faa0bfb50dc7b36	0.05087266313625209
223	0xbfc20389f55613a2	-0.14073299865063144
224	0xbfb8c6c2b53ec688	-0.09678284573490192
225	0xbfd5de2a276cca52	-0.34168485498517953
226	0xbf2097ecd793729a	-0.00012659803522909325
227	0x3fcf342cf7ab29c4	0.24377977460092215
228	0x3fc0c96647f4d2ec	0.13114622605794268
229	0x3fc52859409ee3fe	0.16529384284311271
230	0x3fb71ba741e5ccf1	0.09026570662335921
231	0x3fa60b392dc6fe73	0.0430543774014013
232	0xbfb3571650da301a	-0.07554759477551479
233	0x3fc373c23019031f	0.15197017048378655
234	0xbfadb9a6a5cf26cd	-0.058057029476527335
235	0x3fc59b3c32f6aca8	0.1687999008985106
236	0x3faaf2c5da72d53d	0.05263345996483302
237	0xbfc2523f6f87486a	-0.1431350035259727
238	0x3faef43f60143795	0.060457210997
239	0x3f85afe0a62ede82	0.010589366027360162
240	0x3fc8a578cb9360ea	0.19254980030269248
241	0x3fc4cbaf1477e30b	0.1624659395163451
242	0x3fa1b51734df0d50	0.03458473701860021
243	0x3fd288b570faebbc	0.28959404023379043
244	0xbfd9fcb9d85355d0	-0.4060501682809816
245	0x3fc404f0a6ed56f0	0.1564007582734841
246	0xbfb2271b5a257473	-0.07090922308766938
247	0x3fb6dc2ba547b366	0.08929703507574302
248	0xbfd36cc8289033fd	-0.30351451836833104
249	0x3fb11909f6b33a9f	0.06678831360771163
250	0x3fb5745543187d65	0.0838063515479824
251	0x3fa9d5063d453629	0.05045337198189898
252	0x3fd3a4b3f0b0b56f	0.3069276667109397
253	0x3fc6c98a80debba8	0.1780255440948768
254	0xbfb87d966568298c	-0.09566631294015887
255	0xbf9d5dcee5712090	-0.028678162340185553

V f8 [24, 16]
0	0xbf99f5faf06882e8	-0.025352402613978336
1	0xbfa361fff5685327	-0.03785705443093539
2	0x3fb16f52e7f36846	0.06810491717206543
3	0xbfba4d37a7886963	-0.10274074402005832
4	0xbfd7fff4f4902b6a	-0.3749973667442449
5	0x3fb10a05a1f9ae4c	0.06655917362666591
6	0xbfc38b06fa77934d	-0.1526802752479405
7	0xbfb75686efb83d7d	-0.09116404869586421
8	0x3fc0e88fa59ff8b7	0.1320972021785047
9	0x3fc1c34faeca8929	0.13877292666172394
10	0x3fc1aac163bf8bcd	0.13802354212302106
11	0xbfb55be353639fba	-0.08343334947460238
12	0xbf9547f3e8b5ac82	-0.020782290533514665
13	0x3fc1ccd46755a14f	0.13906340642575762
14	0x3fb6bf78fcba5dce	0.08885914011113202
15	0x3fd3ece43e5086d8	0.31133371434598933
16	0xbfdabc198f7b24b1	-0.4177307034665985
17	0x3fd437d69c52fb96	0.3159081007578889
18	0xbfc9208bb27c5be1	-0.19630571570516422
19	0x3fb8e0abb8e40a48	0.09717820419249634
20	0xbfb421d932a0c511	-0.07864148603473022
21	0xbfb30b200dc1adaf	-0.0743885072312682
22	0x3fa2b66679df76d0	0.0365478538294447
23	0x3fc3300ed97ac7df	0.14990411395188993
24	0x3fa5707325ef659a	0.04187354887080659
25	0xbfa603a7be7414c8	-0.04299663734313125
26	0x3fc57b1811bf40cd	0.16781903139645352
27	0x3fb937d3375a06cd	0.09850807286604919
28	0x3fb348c56057a6c8	0.07532914735898111
29	0xbfba5d2c18de99b0	-0.1029841957775719
30	0xbf618c50abee7fb3	-0.0021421027772276723
31	0xbfb0ab2d8b6b8d7e	-0.06511196759998047
32	0x3fc45844c2426431	0.1589437435657444
33	0x3fce97d6b42e3095	0.2390087489878893
34	0x3fd1c610767e8f19	0.2777138859912483
35	0xbfc6626d7dca110e	-0.174878775044029
36	0xbfc84a45e01b6ee7	-0.18976663058025808
37	0xbf6ee7cd291072cf	-0.00377264089958227
38	0x3f77045595c0bf41	0.005619367901132767
39	0x3f9bef0b8c107af9	0.027279072212077236
40	0xbfda387f65ea0770	-0.40969834282451867
41	0x3fc6164a795d68bd	0.17255526472110275
42	0x3fcf20010749df34	0.24316418510329074
43	0xbf7bcaa1a39c210f	-0.006785041239489211
44	0x3fd60fb573e3270a	0.34470878903503943
45	0xbfc7d0f64c660696	-0.18606451731107104
46	0x3fc6daccfae57799	0.17855226755903855
47	0x3fca2898f232d32f	0.20436393571949327
48	0x3f8ef1a2f52440c3	0.015109322649124462
49	0x3facdbb9578e941d	0.0563638610249557
50	0xbfd1b529f2edd1d6	-0.27668236468823915
51	0xbfd1d0d33550e165	-0.27837066847452824
52	0xbfba352814275a4b	-0.10237360469850747
53	0x3f9c3802e2ba4f69	0.027557416046490788
54	0x3fc150d3b02a63a5	0.13527914144358735
55	0xbf92da6b170f14d3	-0.018411324770359293
56	0x3fd1947ba193763e	0.2746876790896272
57	0xbfc313eb1a880cdf	-0.14904536052208692
58	0x3fd00562c31ea0a3	0.25032872252132615
59	0x3fa0451455ecbade	0.03177703427205868
60	0x3f9755b2ac2feb5e	0.022787849196883918
61	0xbfd31b972ac51e89	-0.2985589902568582
62	0xbfca49ca20c41b81	-0.2053768787374928
63	0xbfc52790bd3772b8	-0.16526993979541316
64	0xbfc55383cfdbcee0	-0.16661117219302124
65	0x3fd334d927a583b9	0.30010060188038384
66	0xbfb78b4eb59f4d35	-0.09196941312921043
67	0x3fa0863600c32f1f	0.03227394828135587
68	0xbf948afc15bdacfd	-0.020061434580765248
69	0xbfd320fc22a275b3	-0.2988882387379263
70	0xbfc30a7c282b39db	-0.14875747643823342
71	0xbf997196ce214ab2	-0.024847370463542524
72	0x3fc1523aaebe8cca	0.1353219369167163
73	0x3f974fa9fe6f23cb	0.022764831690242276
74	0xbfd87a8e535f654b	-0.38248022214755356
75	0x3fd09e28469ae16d	0.2596531571866965
76	0xbfb1827fccc02a4f	-0.06839751004023607
77	0x3f59dd1e9ada1a0c	0.0015785979152568323
78	0xbfbe5c9f750f9d94	-0.11860081298765685
79	0x3fa672cd1e1c7a98	0.04384461395806233
80	0x3fd4007b5b2da47d	0.31252941040163035
81	0x3fd5b9b54489d227	0.339459721500392
82	0x3fb84a7ede1930b0	0.09488671228717993
83	0x3f937521c5b4fa0b	0.019001510326456066
84	0x3f8cb8861026efe1	0.014023825996325403
85	0x3fab979f3d689e58	0.053891159292388024
86	0x3fc2e0a8ee4d1b47	0.1474810756282869
87	0xbfc5a273a866bd59	-0.16902013514252692
88	0x3faa61954b542abd	0.05152575058499085
89	0x3f8918ed86247efc	0.01225457730885137
90	0x3fd004680db3dc7f	0.2502689489187517
91	0x3fd77dc95d807a0c	0.36705240374604453
92	0x3fd20d6f3c0f9c3a	0.28206997742967455
93	0xbfcb862e6164a123	-0.2150323844482581
94	0x3fbbf35e03c2484c	0.10918223945398714
95	0x3fbbcc5f3eff1077	0.10858722007748321
96	0x3fcddc15dce82732	0.23327897345034782
97	0x3fd06f5c56fdf503	0.2567969178706592
98	0xbfca35a2f7054ece	-0.20476185857352508
99	0xbfd1339d7135b4cf	-0.2687753301205022
100	0xbfafd1157cad932f	-0.06214205882023404
101	0x3fb17219211da2e6	0.0681472497796097
102	0x3fbbc62f1c84d0f4	0.10849279829273312
103	0x3fbef4fd1fb2e6f2	0.12092573188683867
104	0x3fab7d294ed065c3	0.05368928038678746
105	0xbf650e784cd7d677	-0.002570376359240008
106	0xbfcaec65408b6f65	-0.21033921863169805
107	0x3f75c72f1a3d9cec	0.00531690978446096
108	0xbfc5bbe6e0833dd9	-0.1697968097928271
109	0x3f9c7b4a4c6d90a9	0.027814064898294664
110	0xbfb3169c06845346	-0.07456374320129297
111	0x3fda9cb7f8ba1349	0.4158153466199122
112	0xbfc5e13ad274c633	-0.17093596721820034
113	0x3fc2b0b3755fe3eb	0.14601748686962365
114	0x3f8d0768a838a5ef	0.014174287446695437
115	0x3f6e0a636d12c3dc	0.0036670629420645206
116	0x3fac5f4c0e444626	0.05541455911783215
117	0x3fc4ac36375d90db	0.16150548652070182
118	0xbfda9c7456371ff2	-0.41579922122446
119	0x3faa583fc4b1c574	0.05145453716330453
120	0xbfa336f43124256a	-0.03752863979213823
121	0xbfd155d81c5dc330	-0.27086451311247384
122	0x3fc090ed0c2771ef	0.12942278951130912
123	0x3f991470f5d70a4c	0.02449203968513762
124	0xbfc10cba746cb5c1	-0.13320093807980807
125	0x3f99346d9124f43c	0.024614059432895838
126	0x3fca44c284592c48	0.20522338354416747
127	0x3fc20f198ece7adf	0.14108581040360144
128	0xbfc00cc6c7489f6e	-0.12538990717552728
129	0x3fcae586f366f068	0.21012961277836273
130	0xbf743102248458b9	-0.004929550523476483
131	0xbfd0bcaed708b12a	-0.2615162944737387
132	0xbfcd581e67d0ba55	-0.22925167149647288
133	0xbf99aaf349e7d54f	-0.025066186319198377
134	0xbfa7432ddd6bb582	-0.04543441131486771
135	0xbfd47bef21a361c7	-0.3200643375871803
136	0x3fcbcb05eee4a5a4	0.21713327564911566
137	0xbfb92c6d0e2dcb87	-0.09833413692630986
138	0xbfceafab62d629b4	-0.2397360069847544
139	0xbfd0831edea17982	-0.25800296536717593
140	0x3fbe0c12217cbde5	0.11737168614921918
141	0xbfbfeb2784c9ba16	-0.12468192092794825
142	0x3fb579e1eca0fce4	0.08389102961608647
143	0x3fa569c00d86f716	0.04182243504645393
144	0x3f77853898f0ce96	0.005742283900918152
145	0x3fc498aa7d8bb7a1	0.16090899591602884
146	0xbfc614d86b44e648	-0.17251115072012824
147	0x3fb9c1526ba1e007	0.1006061089300375
148	0x3fbb339f3315b3f9	0.1062564372748084
149	0xbf9af16960531387	-0.026311537269765786
150	0x3fd1d88b481db138	0.2788418010957403
151	0xbfca1f4f0c8f1b73	-0.20408046830399548
152	0xbfc4c75c886cdff2	-0.16233402882949083
153	0xbfd54e72c9a3b3ab	-0.33291310969689886
154	0x3fc4eb82cf58ca42	0.16343722462041127
155	0xbfc046067bbfee7c	-0.12713700334994715
156	0x3f6a1d1e2f492f6f	0.0031877126259924264
157	0x3fc1f810e4f21777	0.14038287333476848
158	0x3fd2dd6bed05b1e2	0.2947645010633818
159	0x3f6fc41c36930a05	0.003877692321652806
160	0x3fbed4ffab8120eb	0.12043760239714955
161	0xbfad1e2825c01b69	-0.0568707033235601
162	0xbfd2a4c39be16a85	-0.29130640242298284
163	0x3fb45b82ecfb6806	0.07952135358519294
164	0xbfbf7a0f1806d6d1	-0.12295622192945223
165	0xbfc0b0fa0620659b	-0.13040089892528503
166	0x3fc9a43659ef632e	0.2003238619934335
167	0xbfb1b614a0e2caf5	-0.06918457916144034
168	0xbf9ea5a094599d6a	-0.029928692869729025
169	0xbfb1e42980a8f974	-0.06988772765268952
170	0xbfb1567506f66d86	-0.06772548122392238
171	0xbfce533e2816b353	-0.23691536862807058
172	0xbfd2ddae10776269	-0.29478026969949284
173	0xbf9519000c6785b7	-0.020603180653670807
174	0xbfc46af2061e1688	-0.1595137147780188
175	0x3fd2b7a6dd044b98	0.292459216915796
176	0xbfb73f3f3311be01	-0.09080882069405762
177	0xbf90eb580aaa354c	-0.016522765780384405
178	0xbfb6c462256e4c22	-0.0889340726264867
179	0xbfa29570b5deab45	-0.03629638881769507
180	0xbf81184e4487e54c	-0.008347140756984082
181	0x3fe0f999528d9a05	0.5304686176648948
182	0x3fcd53db00909f4e	0.22912156608185302
183	0x3fd19a54729b1ce5	0.27504454795821537
184	0x3fd8f016612f1caa	0.3896537732184223
185	0x3fbfa7574a744a67	0.1236471707127663
186	0xbfc74ba881323954	-0.1819964056816824
187	0xbfc8906bd04e539f	-0.19190738364400503
188	0xbfbfeaea2f0ab280	-0.1246782650802718
189	0xbfa857f7eda3b38b	-0.047546146162722534
190	0xbfcd0481808cf968	-0.22670000817192748
191	0x3fcce19d6b8b9875	0.22563522101626501
192	0xbfb5e0ce4e9dfbbb	-0.08546151561129893
193	0xbfb4e30ab0ae89bb	-0.08158938230056993
194	0xbfb5df34ed1a10cf	-0.08543711460703494
195	0xbfc3e32f472c9c15	-0.15537062621407985
196	0x3fbd9ca9fdc0ce06	0.11567175336022481
197	0xbfcddc13c0f4f301	-0.2332787220165287
198	0xbfd220c3ad4e01f1	-0.28324977802552015
199	0xbfb773405927112f	-0.09160234619691175
200	0xbfae84878b647b58	-0.05960486961907091
201	0x3face1d7762e4c5a	0.056410535026906586
202	0x3fd810d845122a5b	0.3760281252404291
203	0x3fb172e326ceb8a1	0.06815929124306531
204	0xbfba9bc5ef14769d	-0.10393941008484338
205	0x3fcea7d4ee6fee7d	0.23949681894724853
206	0xbfd1129a561d733e	-0.26676042947456213
207	0x3fc50a510e669a9b	0.1643773384395971
208	0xbfbaec23706a63c8	-0.10516568655511016
209	0xbfbf9ff669bc95e0	-0.1235345848222873
210	0x3fcc5da3ad6d4015	0.22160764663794966
211	0xbfab6c1854b6ff0a	-0.053559074727216396
212	0xbfbb36f046fb6cb2	-0.10630704625093548
213	0xbfba30e40026f467	-0.10230851176943788
214	0x3fad86b4aa50fb91	0.057668348112648656
215	0xbfd717422720a99a	-0.3607945806603766
216	0x3fb1667e37da3142	0.06797016967374694
217	0x3fcc75b7967a869a	0.222342442012679
218	0x3fd2cc143675247a	0.29370599096416294
219	0x3fb7f7aa6b4a5bd9	0.0936228286685571
220	0x3fd6eaf1533c2a85	0.35808976295872014
221	0x3fbf726d9f8e6130	0.12283978600897139
222	0x3fade7f4332df076	0.058410292861453536
223	0xbfc4a99ad307d557	-0.16142592720249624
224	0x3fb69c66c89b663b	0.0883239974749807
225	0xbfbc1bd0b99d8f15	-0.10979942828776885
226	0x3fb35c8b5cd8f46e	0.07563086525711224
227	0x3fd8b934908322ce	0.38630403625988385
228	0xbfd1aa82489cbd3c	-0.27603203860322245
229	0xbfbfbdb544a121c7	-0.12398846555254926
230	0x3fd98a2aa346ffd1	0.3990580172066958
231	0xbfb80ca00fceaeec	-0.09394264589235107
232	0xbf63887b03dc0b00	-0.0023844149244508506
233	0x3fd0e27454dfa4f0	0.2638216809123852
234	0xbfc55719493a72e6	-0.16672054362870553
235	0x3f93e59c95a108bd	0.019430586464530764
236	0xbf93562c0a58b89c	-0.018883407718185738
237	0x3f78aa98f7c0cdd8	0.006022069483197133
238	0xbfbf048faf8c2237	-0.12116334949326633
239	0x3fbb3a7c8969b1e8	0.10636118273550432
240	0x3fc5e6ff26b8a093	0.17111195936854937
241	0x3fc923e886027057	0.19640833419259948
242	0x3fc7a52940c16c39	0.1847278181256529
243	0xbfd268f500f4f702	-0.2876560696930569
244	0x3fd6789a95df03f2	0.3511110747895706
245	0xbfb043e75640f5b2	-0.06353612762264652
246	0x3fc36634e68b47f2	0.15155659920725345
247	0xbfad62f5418e448b	-0.057395614864739285
248	0xbfd2228f3e400cb2	-0.2833593471443222
249	0x3fca1cbe970532ba	0.2040022122768244
250	0x3fb2fb221c799bc3	0.07414448924247012
251	0xbfb6a24f0eb11393	-0.08841413601574137
252	0x3fd30375da8a9c5c	0.2970862039750892
253	0xbfc0d973456744c6	-0.13163605583989674
254	0xbfb021d7bb472437	-0.06301639864172236
255	0x3fb4c2429f2f94dd	0.08108917604802764
