ChirpChirp-main/data/bam_autoencoder_weights/mf_layer_0_weights.npz (npz, 5098 bytes, 2 tensors)

W f8 [24, 12]
0.3097394208536748 0.20806318058135378 0.10554693762582806 0.18063836375771725 0.06996530589154566 -0.007418056411462416 -0.15024226687633002 0.07332925251926949
-0.14827750482205904 0.30950589337316453 -0.16518828971035757 0.049796900950103105 -0.18385942864822452 0.14317164840412314 0.31475223886419496 0.11299512678768428
-0.06597265794331142 0.3119532721312294 -0.13425762245455244 -0.08211281386361757 0.16209022628810804 0.07603375751621537 0.004769681510947868 -0.23759672736936552
0.1738612002414952 0.32975964328127694 0.32906970143530667 -0.12438494037811464 -0.002616575564883981 0.05690689320453702 -0.039583938310508 -0.24180085282563044
-0.05666745654593924 -0.23408273917244884 -0.181655372117329 0.060703724473811574 -0.22226406298288975 0.11701051749725339 0.10513840968366352 -0.19280454892079782
-0.16443293137635595 0.0650600380952714 -0.05838926436633771 -0.031117708597215445 0.10800558470951864 0.3444688809939573 0.19442623297792794 0.3511747704258211
-0.14726495666487363 -0.20350699517705795 -0.08399049241733725 0.1797399577639687 0.2907176487141643 0.32454753842746414 0.272159659783078 -0.28695671357128155
0.011149773253023179 0.15241353267466057 0.12513176329307601 -0.1599056837124464 0.030391283310498132 0.13585092706119342 0.1693823395991813 -0.054165782958916615
0.2003218888130829 -0.11163737240516824 0.22055613252236833 -0.10190967595593518 0.25267308904703584 0.11668699632036662 -0.13311768319440676 0.09218891915895414
0.07014291441880338 0.1336768084975204 -0.13407905112180968 -0.014178953400963515 -0.0987451348559715 -0.1475278402801132 0.28464683920800976 -0.29097488555483614
-0.07827356586740282 0.3223360178820548 0.16673367201938447 -0.016631415674967332 -0.11009170094260404 0.22458959969786546 0.26362010934035773 0.17424996948628485
0.26694774581562924 -0.2452655164283411 -0.12151184209422536 0.034133554913778 -0.17146043490878127 -0.011223353144146376 0.006991227311743386 -0.15454712639406376
0.29996725886129605 -0.006999744441925602 0.125599971407995 0.17151502071096733 0.13011593108191583 0.23397556358411128 0.24601949478232338 0.1248941887968253
-0.12552891181623774 0.051705590522089104 0.29824248833348577 0.24275957488056882 0.25457101151373235 -0.1694223573782394 0.29562368632405583 0.04627317605215422
-0.1976976677417254 -0.3223504962567046 0.14432363619623337 0.11626912348375615 0.15708360249850284 -0.11574760528992123 0.12720348471173776 -0.1695752258020026
0.07751283847003333 -0.08234798664178733 -0.06387739358557978 0.21779866640763507 -0.25207348904663246 -0.2330483242559662 0.017850865121171018 -0.195998041883348
0.042156950978059264 0.14922427787142 0.1678573270050339 0.05857032140394031 0.023105303218417576 0.3811623718694803 -0.3149100229394235 0.11729272919117013
-0.22701221076572606 0.07574766227078861 -0.013867739122071293 0.2855044564711129 0.038644598748668 0.20320766976376559 0.05302945601901971 0.012563100814149315
-0.29964011923414874 -0.1630744214765247 0.06645669195344871 0.07477748824744251 -0.18359924367321986 -0.17995158683532114 0.008625644958951453 -0.17154604048676192
-0.19275807054258515 0.35792986144604744 -0.30459147478864823 0.13042401872988882 0.23653278798949076 -0.16924202405093325 0.14087417956743126 -0.04071211012346107
-0.017002335313392025 0.2321268032968311 0.020811355799426338 0.27721127459439693 0.05557752742761102 0.08189565242809972 -0.32493266297360623 0.18817489267296722
0.3001248497373684 -0.11899256685836829 -0.18415365857351973 0.21538712574126806 -0.053651316243419976 0.1862732029885564 -0.05802250922311235 -0.030858180156107032
0.29703648412279 -0.05139430859470961 -0.10437350589584733 -0.0856325461325447 -0.10060388950136069 -0.03593599447882494 0.0010781782293471595 -0.19678595268104063
-0.2764301157955703 -0.006700947452685511 0.4108377021817826 -0.16062411740119317 -0.0758242872279286 -0.24130299596956858 -0.11638832093959328 0.21833376603971813
0.0951369517622227 -0.33982053877050855 0.06411155614216361 -0.08648384824951802 0.1329461283438704 -0.1512290546570548 0.26067527717198846 0.2764884624378772
0.011998340933040436 0.11705005751362353 -0.24666417641119306 -0.19386827111381563 0.1796926856961115 0.19592490498556003 -0.12249046412750245 -0.15410426533188917
0.016028829875684634 -0.056128790729905995 0.008005503834439641 -0.22645013864285718 0.007628621552612462 0.3110246760016537 -0.006512587070569888 -0.2982521381250202
-0.12081570735088641 0.16263310736748968 -0.0680650941117192 0.009604126208167347 -0.2521770446528073 -0.11875581931377084 -0.03953533189206596 0.12377137268146428
-0.030512399804099297 0.1412141322410486 0.1631802061715378 -0.1558495818555415 0.23691052691165382 -0.018081256452337574 -0.0337396122526333 -0.20495478632281264
-0.0005611183456983159 0.20932544181502738 0.15386010615470527 -0.01678328773736063 -0.018202556834481073 -0.1809746390723639 -0.33854046115461045 -0.2184105049341267
-0.1740706967890298 0.1319290212419448 -0.014152944142378948 0.49746744993989767 0.25888115819843344 -0.24294760754616404 0.1802482014270942 0.012445930784432357
0.1584339317519981 -0.14781239260879067 -0.23381325056968097 0.09893896280949048 0.02505385114082993 0.033580794807936694 -0.07376941800618199 -0.20288935934259444
00000000: 0c4e b64a c5d2 d33f c9a0 0c76 d0a1 ca3f
00000010: 04bf 4bc5 1f05 bb3f 3c05 5f6c 281f c73f
00000020: bda8 a80c 3fe9 b13f 756b fe5a 6562 7ebf
00000030: 94f9 5a7b 233b c3bf 310f 69b5 b4c5 b23f
00000040: a0bb f8dc c1fa c2bf 913f 7dce f1ce d33f
00000050: ff7b fece e324 c5bf 3bb2 0bba fa7e a93f
00000060: c27c 8dac b488 c7bf 6518 ced5 7253 c23f
00000070: 87ed 1093 e624 d43f 0e15 29a6 3fed bc3f
00000080: a8f5 4b88 95e3 b0bf afc3 6bdb 0af7 d33f
00000090: 992b d790 5a2f c1bf 3074 206a 5805 b5bf
000000a0: 164f 745e 5fbf c43f 6394 ecc5 f276 b33f
000000b0: c334 a1a1 5f89 733f 1f12 d8ce 9169 cebf
000000c0: c84e 8a74 1541 c63f eac1 db30 c81a d53f
000000d0: 5e39 715d 7a0f d53f 27f6 0903 b1d7 bfbf
000000e0: 7c6c 514f 5b6f 65bf b1fd 757a e622 ad3f
000000f0: 9124 fb90 5844 a4bf 8bf7 8391 54f3 cebf
00000100: b880 3951 8403 adbf cde1 a656 6cf6 cdbf
00000110: 5d7d 31b5 7b40 c7bf 6288 b8fe 8e14 af3f
00000120: 5636 cb18 2673 ccbf 3451 f0b9 66f4 bd3f
00000130: 9910 25cf 59ea ba3f 0d43 11c8 d1ad c8bf
00000140: 58cc 5267 230c c5bf e94c e54f c6a7 b03f
00000150: 7d26 c899 32e5 adbf ca88 0113 52dd 9fbf
00000160: 8bdc 1c06 41a6 bb3f f7f5 9634 c70b d63f
00000170: 6cf5 0f74 f5e2 c83f 7e30 8abe a579 d63f
00000180: 897a 5cfe 93d9 c2bf fc76 6568 840c cabf
00000190: 887e 1ba2 6680 b5bf b1b9 300c b801 c73f
000001a0: 043b 6632 1e9b d23f cdc4 e209 63c5 d43f
000001b0: 7cc3 8359 106b d13f b700 0ab1 7f5d d2bf
000001c0: 5b1e d63b b1d5 863f 721a 2761 4982 c33f
000001d0: f26c 844f 5104 c03f 30a7 fe18 ca77 c4bf
000001e0: a4b5 9b7f e41e 9f3f 39f7 6d2c 9063 c13f
000001f0: fe99 8c0c 52ae c53f 01d7 bd14 9ebb abbf
00000200: 9104 90cc 25a4 c93f 90d7 7d4f 4494 bcbf
00000210: fed2 0ef0 2e3b cc3f 5b6f 60a5 c016 babf
00000220: fb52 82bf cb2b d03f 997f 10f1 32df bd3f
00000230: 106d eb0f 000a c1bf 2a5f d768 b199 b73f
00000240: 3892 79d3 e2f4 b13f 3081 5d58 521c c13f
00000250: 1ecd d299 8029 c1bf 756d 30e9 da09 8dbf
00000260: 2a73 d874 5c47 b9bf 1f55 a038 31e2 c2bf
00000270: 19b9 5360 a737 d23f 5395 5a20 559f d2bf
00000280: 35b3 8a85 bc09 b4bf 3e15 c83f 27a1 d43f
00000290: 338d 3b6a 8757 c53f ad02 a469 d307 91bf
000002a0: fa07 1c3f f82e bcbf 1eae dc1c 5abf cc3f
000002b0: 72d3 0be1 26df d03f 46e4 22b0 d24d c63f
000002c0: 1738 81ff ab15 d13f 2ab9 f245 dc64 cfbf
000002d0: fe14 df6b 661b bfbf 1f0f 1a0c f479 a13f
000002e0: 14de 3e60 6af2 c5bf 8d00 a5f5 44fc 86bf
000002f0: f3fd 9a4a d5a2 7c3f f4d1 c642 33c8 c3bf
00000300: a885 abdf a932 d33f d7b8 5597 c3ab 7cbf
00000310: 3ab6 c9ec a813 c03f 9bf9 5c46 34f4 c53f
00000320: cabb 578a a3a7 c03f 2b16 d448 e9f2 cd3f
00000330: ea5e 221a 917d cf3f adc2 57c8 10f9 bf3f
00000340: c102 7ad5 5411 c0bf 7e1f a0b8 2779 aa3f
00000350: 00e1 6aa9 6716 d33f 6e92 73e9 be12 cf3f
00000360: fd82 3d36 e44a d03f 304c 13be a1af c5bf
00000370: 79d3 2b9c 7feb d23f 63f0 a623 1eb1 a73f
00000380: 951c b93c 284e c9bf 1567 d1f9 63a1 d4bf
00000390: fd55 c068 3279 c23f a6b6 e532 d0c3 bd3f
000003a0: 0406 bcc3 501b c43f c87e 4f93 a2a1 bdbf
000003b0: 5617 632b 3448 c03f 7505 8418 a4b4 c5bf
000003c0: 79b9 3fa2 e1d7 b33f 8096 84f5 c114 b5bf
000003d0: 7a5e 67d4 445a b0bf 82a6 aaa2 d3e0 cb3f
000003e0: ab35 e9d7 f821 d0bf bf92 8809 87d4 cdbf
000003f0: b25a 9a47 7f47 923f c708 fcbd 7616 c9bf
00000400: ffea 7f8b 9895 a53f 340d 9df8 c719 c33f
00000410: 71b7 f050 597c c53f 796b e4dd edfc ad3f
00000420: eec2 bfa6 eaa8 973f 184b 69dc f664 d83f
00000430: 9846 6d5e 7c27 d4bf e545 ef73 e506 be3f
00000440: a306 8472 bc0e cdbf dc94 33e4 3264 b33f
00000450: c373 fd6f b066 8cbf c0f6 d97b b445 d23f
00000460: f1cb 958f 39c9 a33f 4c43 f77b b502 ca3f
00000470: a918 a746 ad26 ab3f 6aa2 10d9 aeba 893f
00000480: 8d88 2bc0 4d2d d3bf 3f24 8765 9fdf c4bf
00000490: 3758 8a46 4e03 b13f 3cf2 7f12 9e24 b33f
000004a0: cfca 9215 2e80 c7bf ce16 2952 a708 c7bf
000004b0: fb79 0b78 52aa 813f 4810 d37c 38f5 c5bf
000004c0: 929e 82e4 4bac c8bf a20b 4ba6 52e8 d63f
000004d0: c8e3 b63d 6d7e d3bf cf64 87f7 bbb1 c03f
000004e0: 395c 6cd6 b446 ce3f 5c2c 34ff b8a9 c5bf
000004f0: bee5 0b45 2a08 c23f bc15 10bb 37d8 a4bf
00000500: 23af 8168 0f69 91bf 48ab 57c2 54b6 cd3f
00000510: d102 2d72 924f 953f 49c9 9d5b d4bd d13f
00000520: 5065 635d a874 ac3f 59ff dc0c 1df7 b43f
00000530: d0ec 375e b2cb d4bf d2b6 fa68 1d16 c83f
00000540: bab0 95db 3e35 d33f 64b0 1fff 4b76 bebf
00000550: c889 81da 5892 c7bf 48e3 842a ce91 cb3f
00000560: 5b41 4e71 2f78 abbf 9b7f 7ae1 ccd7 c73f
00000570: be1a 1757 20b5 adbf d195 566a 4999 9fbf
00000580: 5dad 4150 a502 d33f 4fc8 3ad5 5a50 aabf
00000590: 253b 64da 38b8 babf 32cc 1cb9 03ec b5bf
000005a0: e93c 422f 2dc1 b9bf 0653 12e2 3366 a2bf
000005b0: 65db fe0e 35aa 513f 15e4 8937 4830 c9bf
000005c0: 862c bef0 07b1 d1bf be7f 95e2 7372 7bbf
000005d0: 2c69 b537 2a4b da3f 43ef 97c1 548f c4bf
000005e0: 4bef e271 3869 b3bf ebdc 0e3e 04e3 cebf
000005f0: 6068 1200 a0cb bdbf bd65 6060 5cf2 cb3f
00000600: 70ba 7530 e55a b83f ded1 21a5 9ebf d5bf
00000610: 6b1f ed6c 9d69 b03f fe28 dd33 ce23 b6bf
00000620: 67f1 aef4 6004 c13f 8380 fa41 795b c3bf
00000630: 5015 955b e7ae d03f a516 f9a9 fcb1 d13f
00000640: 8a30 4f0f 9692 883f 2114 0419 fef6 bd3f
00000650: dbf2 6315 b192 cfbf 333c 15ee acd0 c8bf
00000660: 1b96 3280 2b00 c73f 0044 b139 1114 c93f
00000670: 32de 7ff9 885b bfbf 2125 e345 b0b9 c3bf
00000680: 99d5 6f90 dc69 903f 2613 19b1 e9bc acbf
00000690: b95f 4189 3065 803f 86a7 d271 51fc ccbf
000006a0: 0500 5081 303f 7f3f 3345 eb0a d4e7 d33f
000006b0: 75ec af47 f1ac 7abf db60 cd22 9016 d3bf
000006c0: 2f48 ea37 c7ed bebf e3f2 b162 29d1 c43f
000006d0: c580 35c9 b66c b1bf d710 c4ff 53ab 833f
000006e0: c07c e52f ab23 d0bf 858e 2908 c866 bebf
000006f0: a59e 069b f93d a4bf 1511 d90d 7baf bf3f
00000700: 4cd4 1f7d a43e 9fbf 53aa daff 4d13 c23f
00000710: d33e 6ec8 16e3 c43f 0319 950c e1f2 c3bf
00000720: 80f3 948a 1553 ce3f 7894 8894 e483 92bf
00000730: 0bd9 6886 5146 a1bf 9523 355c f53b cabf
00000740: 7aad d378 0063 42bf 4e7c 6813 2dcb ca3f
00000750: 5df9 0b1e b0b1 c33f 4927 ce5f a32f 91bf
00000760: cf0f 3be9 b0a3 92bf 8150 1c4e 2d2a c7bf
00000770: 2e09 429c a5aa d5bf f7bf e51b e0f4 cbbf
00000780: ea4d f3d6 f247 c6bf 0750 d0d7 0ce3 c03f
00000790: a37a de01 38fc 8cbf 883f 14b7 81d6 df3f
000007a0: edd2 0047 8291 d03f 0faf 863e e818 cfbf
000007b0: 7c66 2581 5f12 c73f 46d4 7f8d 407d 893f
000007c0: aacb b925 9047 c43f d960 1938 84eb c2bf
000007d0: ddbb 48b4 97ed cdbf cb21 9159 1054 b93f
000007e0: 63a5 277d b7a7 993f 9992 f27e 8031 a13f
000007f0: b910 c875 8de2 b2bf 589a 8a4d 47f8 c9bf

V f8 [12, 24]
0.40716819748065364 -0.19523720567741065 0.17412470196569815 -0.15401120987753164 -0.12512926541979005 -0.17161164254459757 0.1969986515359577 -0.11837555613625596
0.27574916878639033 0.30862363865427933 0.20400435238784237 0.07264763824243525 -0.2526839362512174 0.17466928066268506 0.25291989359362493 -0.1250887100202177
0.05086969900614378 0.2956892886445664 -0.19066529904705248 -0.005138733464183793 -0.12642068731276682 0.06282420473384581 0.3284397683420615 -0.07211753478919693
0.1391192732090546 0.13009123262876468 0.42692260721268804 0.19883056171009608 -0.12208870440260088 0.17393472907906854 -0.07640193212953629 0.2068283980659377
0.06155916682518012 -0.06831932622299322 -0.09696934799102418 0.40802051574626896 -0.22694959893837519 -0.14091226367685752 -0.1935591482860949 0.12253952579311582
-0.2966460934365131 0.25673230026032223 0.2847925230297702 0.4170040827580456 0.28142140508515223 0.009334551374537852 -0.20862150601136284 -0.11698699867101335
0.049080638445648875 0.32691430145383144 0.21963919212919433 0.3150594220602876 -0.04964855982539576 0.25572440431979193 -0.03893426897136374 0.2940761540206092
0.20194030055918583 0.31131550988527357 0.013907379343953617 -0.2807918516476143 0.02856144162965162 0.07981909180602863 -0.30991869760511187 -0.10757297562754169
0.06195157406320366 -0.13339200367967957 -0.058926334607425454 -0.09839763846788642 -0.050088563276583405 -0.14675865980043357 0.15624339408100238 0.2710630072743475
0.2051228798860215 0.05246906188091956 -0.02493110697884897 -0.22137983050805246 0.12677178278619464 -0.1084628182065601 -0.0017214943798325177 0.13148811316361356
0.1781562745622089 -0.05575102957052849 0.2821673334221372 0.055572716885155735 0.14191098502353047 -0.08486994251048006 0.38775980272997745 -0.1397850550254561
-0.14679220721942146 -0.22492389858807343 -0.0467436551310814 -0.2967935320366837 0.4252187966825372 -0.30662538254636573 -0.059563278595199914 0.1769776644076078
0.037058324478181505 -0.04802006481372838 -0.002347838161167523 -0.13049861065121873 0.2882777284879978 0.16110467257108235 -0.07932766563713609 0.2609664706226383
0.09226018953834418 -0.1783857099165875 -0.24323986632542755 -0.18158677996002198 -0.16598713988623778 0.04243698389472319 -0.16786849491811032 -0.2958007774837674
0.15044438392537834 0.027651174322774502 -0.1918807057010236 0.017507227939848553 0.14344802626164999 0.3168594509127215 -0.0077600902179554 -0.3218020326497737
-0.023965726803202875 0.2677126561211563 -0.015662783095785383 0.09075515653471239 0.26687852834259734 -0.06799192125149794 -0.09478969151669085 -0.1620836014290684
0.2963422008056762 -0.3764156625112394 -0.25932594306131074 0.08850837427054256 -0.117935097662508 0.16533811802552106 0.17420817727900134 0.02860874071047556
-0.15044820838444112 -0.04229598314238383 -0.05946470638090441 0.1019924303740704 -0.18020718721625176 -0.17872609606401108 -0.01401746399448725 0.20941356785273568
-0.18315946225776983 -0.04013893214435233 -0.02366938048220485 0.06103263126187485 0.2518328427013226 0.36637712071448386 0.21084019291160563 -0.06519778440439085
0.31338197962709474 0.1967539453348507 -0.15868142757215395 0.12087294918577508 -0.05072152014945765 -0.048490902866860586 -0.13897651522717724 0.41704080278325184
0.22582601065226734 0.07856992496124679 0.12951830050640603 0.3484523696110925 0.22946451701405485 -0.30660521413960057 -0.2604988138162397 -0.07704145932056068
0.011567514228268226 -0.049447685703352014 -0.36524414395769933 -0.02053671191863943 -0.3163855447038852 0.27953927355879143 -0.34955691962367164 0.1108184906272456
0.14152866192174093 0.014099143378379657 -0.2196377871894489 0.14594471482851523 -0.21466994430587646 0.2847349803339667 -0.15241245283132995 -0.12396370026836252
0.2795806411981064 -0.3581781296900092 0.42635954401260795 0.18002158210661393 -0.09275497684851546 -0.20370280092790313 -0.4343742366800971 -0.07939140593333871
-0.19414565719454507 0.3128379766131728 0.03891060910846547 0.41471566978843355 -0.01610141938040193 0.5058059486585551 -0.37778283846059374 -0.3308590568189877
-0.2839852616091697 0.29985485324912864 0.09711864778880501 0.13589783981079376 -0.27315652607984575 -0.08140558022001756 0.5891765153082948 0.10154571334275855
0.1875778667570377 0.10203275841523102 -0.11040206800516461 -0.12577487412857952 0.3068861383003458 0.3783563650621665 -0.164201140116297 -0.022239608712353188
0.3484249766774287 0.12905342247681528 -0.1355522647241172 0.3065201720871138 0.19580953443828716 0.18155558575113911 0.13826339581029967 -0.039083601029740365
0.018426870032130626 -0.07295398431953581 0.10771824344416146 0.06900081403831834 0.3567512297835636 0.1481638556373254 -0.05689487544746179 -0.17631368671870376
0.25817106449544164 0.2312042362148106 0.020289813890489578 -0.06703208763540018 -0.1566863001010242 0.1529142033946199 -0.16682312066342736 0.01551672128811794
-0.19182983106878748 0.07513755390390768 -0.012211142542533145 0.08677499071738887 0.1683971621997499 -0.05340667870556228 -0.04377537202973919 0.07784310159616138
0.37369865246322775 0.20043189796434077 0.3099612790370091 -0.15597823497607202 -0.36486265229718245 -0.31570241704556423 -0.1309160112540827 -0.10493220122675409
00000000: b1a4 0933 0b0f da3f 5c67 ac62 88fd c8bf
00000010: 6728 2fde b749 c63f 1619 d2aa a3b6 c3bf
00000020: 7310 605b 3c04 c0bf 03c3 2bcc 5ef7 c5bf
00000030: 2afd d976 4037 c93f 9943 4046 dc4d bebf
00000040: fe8c 75d7 dfa5 d13f ccba b25c 7dc0 d33f
00000050: 32ac df8a d01c ca3f a005 621e 0999 b23f
00000060: 131b 9b3e f92b d0bf 28f2 0720 905b c63f
00000070: cb83 dfeb d62f d03f 645d 5127 e802 c0bf
00000080: cd70 2ddb 970b aa3f f160 20c4 92ec d23f
00000090: aecf f173 b867 c8bf 6e96 be42 5a0c 75bf
000000a0: 15e9 c596 8d2e c0bf bca4 ba40 3f15 b03f
000000b0: c109 ef3b 2805 d53f 2143 6375 4b76 b2bf
000000c0: 048d 560c a9ce c13f 0985 d15a d4a6 c03f
000000d0: fab2 f932 b352 db3f f9bd fea3 4773 c93f
000000e0: 3fc4 9e90 3441 bfbf 8a40 8442 7e43 c63f
000000f0: 59fa d8b7 138f b3bf 0de4 c95a 5a79 ca3f
00000100: ecf9 90e0 ae84 af3f ba00 d017 607d b1bf
00000110: 07fd 55b2 fbd2 b8bf ba8b ce14 021d da3f
00000120: f0eb a338 af0c cdbf a578 0cbe 6909 c2bf
00000130: 7d7d ddd1 8bc6 c8bf 1bb0 bf17 c05e bf3f
00000140: 67f1 72e5 3ffc d2bf d679 5c50 4d6e d03f
00000150: 62b9 236b 0a3a d23f 57a2 6fe4 31b0 da3f
00000160: d40b cfec ce02 d23f b603 0347 fe1d 833f
00000170: 2bd1 c708 1cb4 cabf 0765 5925 dcf2 bdbf
00000180: 4a52 fbf1 1821 a93f 65b0 55f6 29ec d43f
00000190: 23b0 8e15 231d cc3f 0ceb 82fe ee29 d43f
000001a0: c4b5 7c39 896b a9bf f4ec 55e4 c95d d03f
000001b0: 0df2 d947 31ef a3bf 9153 03ca 24d2 d23f
000001c0: dab3 5205 2ed9 c93f d877 6ce3 97ec d33f
000001d0: d28c a4db 787b 8c3f 8dd3 f362 7ef8 d1bf
000001e0: cd63 e7e6 353f 9d3f 9f3f e724 066f b43f
000001f0: ed80 a83b b5d5 d3bf 43f2 400c e789 bbbf
00000200: 7609 13e1 1db8 af3f c612 ad3a fd12 c1bf
00000210: ce2a 06b0 972b aebf e123 396f 9630 b9bf
00000220: 1165 5a4a 35a5 a9bf 10b3 1fde fcc8 c2bf
00000230: ff9f e595 c8ff c33f d684 d9a7 1859 d13f
00000240: 4bca 626e 7741 ca3f 9a23 a991 39dd aa3f
00000250: 8c49 8244 8a87 99bf 8557 039e 2c56 ccbf
00000260: 3da8 8fca 0e3a c03f 9f77 0721 38c4 bbbf
00000270: 85b8 f183 7834 5cbf 1ddc ec3c 9ad4 c03f
00000280: 7e33 6926 d3cd c63f 348f 7221 668b acbf
00000290: fe0b 4393 070f d23f 2eaa 24f3 0674 ac3f
000002a0: 3f42 cf9f 232a c23f 17f4 7e5b 09ba b5bf
000002b0: 3e6f db7d 0ed1 d83f 03e6 e607 7ae4 c1bf
000002c0: 3954 a848 16ca c2bf f625 436a 4eca ccbf
000002d0: 25c0 2acc c8ee a7bf b8c2 704c aafe d2bf
000002e0: 9557 59e6 c836 db3f 923f 8a11 c09f d3bf
000002f0: 6cc4 37fb 137f aebf d966 6040 34a7 c63f
00000300: 2550 5b07 4ff9 a23f c680 daff 1596 a8bf
00000310: 93e0 ca03 c63b 63bf 61d0 75b0 2db4 c0bf
00000320: 005a 016e 2473 d23f a279 f6f1 139f c43f
00000330: 965b 9461 d14e b4bf 4d50 2bb6 acb3 d03f
00000340: 233a ca20 5d9e b73f a72e 15cb 57d5 c6bf
00000350: 66be 79e3 7b22 cfbf 1a39 a850 3c3e c7bf
00000360: 9719 af0c 113f c5bf 63fb efe3 4cba a53f
00000370: fddb d9ff b67c c5bf 5725 5b62 66ee d2bf
00000380: 6ec6 69f6 c241 c33f f834 a6e5 9650 9c3f
00000390: ee11 dc05 8c8f c8bf 12f4 c72d 6aed 913f
000003a0: c019 bc42 815c c23f 6250 c6dc 6c47 d43f
000003b0: 5fb9 335b 0bc9 7fbf 3418 818d 6798 d4bf
000003c0: e5e5 60b3 788a 98bf 9500 b143 3422 d13f
000003d0: fd98 a494 e709 90bf 1c8c 42dd ba3b b73f
000003e0: af1b cfad 8914 d13f 24da 2a26 eb67 b1bf
000003f0: d3e6 0f21 2344 b8bf 2489 adcb 27bf c4bf
00000400: 90a4 3847 45f7 d23f 5107 0cb8 3117 d8bf
00000410: d6f8 1cd7 cb98 d0bf fe02 ea1c 7ca8 b63f
00000420: 61d3 829b fe30 bebf 9ed4 d9a8 cc29 c53f
00000430: 5ef6 0d1c 744c c63f 38c9 ec16 9c4b 9d3f
00000440: 3e61 600b e341 c3bf 9389 b2b0 d1a7 a5bf
00000450: 222e 5872 2872 aebf ab6c e508 2d1c ba3f
00000460: a589 cc73 0711 c7bf feb1 c428 7fe0 c6bf
00000470: 10f6 6e2b 30b5 8cbf 1412 a254 10ce ca3f
00000480: 05cf 2cee c471 c7bf 5974 b611 178d a4bf
00000490: 10c1 593c c93c 98bf 8f64 8446 ab3f af3f
000004a0: 457f dd7f 071e d03f a32a de05 b972 d73f
000004b0: 356c 9eba cffc ca3f 49dc c94f cdb0 b0bf
000004c0: f1dc 694a 730e d43f 643c 49b8 3b2f c93f
000004d0: d7d6 f34a ac4f c4bf 5956 b993 87f1 be3f
000004e0: 529b 7dcc 2bf8 a9bf 88f0 eeb3 ccd3 a8bf
000004f0: ec08 e881 fbc9 c1bf 464e 43e8 cbb0 da3f
00000500: a737 2be1 dde7 cc3f ee60 289a 281d b43f
00000510: 314a 7440 0e94 c03f ca5f ec2a 0b4d d63f
00000520: 827a 15e2 175f cd3f 71cf e079 6b9f d3bf
00000530: e533 7f37 03ac d0bf c5c9 3734 fdb8 b3bf
00000540: d98f 737a b5b0 873f b1e5 ea01 3551 a9bf
00000550: 3aa5 56f9 2860 d7bf f151 3b68 9307 95bf
00000560: 938a db27 a93f d4bf a17c 78b1 f8e3 d13f
00000570: 68f2 77fc 235f d6bf 013e 09c1 995e bc3f
00000580: 2b44 3377 9c1d c23f e9ac b1fd 02e0 8c3f
00000590: 13e5 784c 171d ccbf d433 9b00 51ae c23f
000005a0: 332b 1d03 4e7a cbbf 18f1 2311 1939 d23f
000005b0: 47f4 3452 4082 c3bf 1534 8bc6 15bc bfbf
000005c0: d198 a233 a6e4 d13f 6a4e 4af6 63ec d6bf
000005d0: afc8 778a 7949 db3f 4d6d dc7b f20a c73f
000005e0: 5309 1b48 cabe b7bf 7762 0bf2 ee12 cabf
000005f0: d405 3199 c9cc dbbf c030 11c4 fe52 b4bf
00000600: cace 27d0 c3d9 c8bf 6406 a093 8905 d43f
00000610: 8435 2d63 17ec a33f dc52 b897 b38a da3f
00000620: 8ecc a1f6 e37c 90bf 428b f3f4 8f2f e03f
00000630: 4969 0b12 982d d8bf 8bde 2777 cb2c d5bf
00000640: a612 ca84 d02c d2bf ea1e 1069 d230 d33f
00000650: 4bac 1588 c4dc b83f d1cd cab4 1965 c13f
00000660: 12ec 8c82 657b d1bf e2c2 c100 ffd6 b4bf
00000670: 7840 1ab5 88da e23f ea2b db5d e6fe b93f
00000680: dc63 9631 8d02 c83f 249b 83a0 d11e ba3f
00000690: f831 7e57 4f43 bcbf ce37 851d 6419 c0bf
000006a0: 3f20 e6c1 05a4 d33f 723a 8b9d fd36 d83f
000006b0: eef8 61ff 8a04 c5bf ddae 61e0 fac5 96bf
000006c0: 871a fc45 984c d63f 04c6 7c92 d284 c03f
000006d0: c8c4 f1cf c659 c1bf a86b abc8 069e d33f
000006e0: a326 546d 4910 c93f b287 9aa3 363d c73f
000006f0: 289c 9e6d 9db2 c13f 7b1d 7708 c402 a4bf
00000700: 0361 9f50 7ede 923f e8ea c3c0 1cad b2bf
00000710: 1f76 c63c 6c93 bb3f f623 b18f 09aa b13f
00000720: 9d9a 2e1c 03d5 d63f 95ae 3481 08f7 c23f
00000730: f6b3 b63a 5321 adbf 85a2 2567 7291 c6bf
00000740: ed02 b2ed df85 d03f 69a0 9eb4 1998 cd3f
00000750: 6504 685c dac6 943f eb38 2dd0 0329 b1bf
00000760: 5223 55f3 4b0e c4bf 933e 564f b192 c33f
00000770: 96a8 bbc3 755a c5bf e6f5 c913 3bc7 8f3f
00000780: 0438 6b41 e18d c8bf 13fe b7f8 363c b33f
00000790: 2490 efce 2702 89bf 6cec 3dc3 e236 b63f
000007a0: 958d 31c8 098e c53f 4353 dbc4 1e58 abbf
000007b0: 48d6 79be b969 a6bf c120 9387 86ed b33f
000007c0: a4e2 b8c0 adea d73f b380 6a9f c0a7 c93f
000007d0: d260 1fd5 67d6 d33f 8d15 0e45 18f7 c3bf
000007e0: 677c c9e1 e859 d7bf 80a5 1ee9 7734 d4bf
000007f0: 74f5 6d19 dbc1 c0bf 7af2 9034 d6dc babf
